netconv.onnx (onnx, 433762 bytes, 8 tensors)

learned_0 f4 [8, 1, 5, 5]
000000 ac 30 58 3e 1e 22 be 3d 34 e0 f2 3d f2 1e 56 be
       0.21112317 0.09283851 0.118591696 -0.20910242
000010 d2 84 75 bd 8c 43 fb 3d 46 ee 63 3c 21 95 a7 bd
       -0.05994112 0.12268743 0.013911789 -0.08182741
000020 6c 1c 1c bd 7a 61 52 be be 50 82 3d 45 2a 3c 3e
       -0.038113043 -0.20544997 0.063630566 0.183755
000030 04 48 cf 3d 56 f2 0e bd 4e 1b ea 3c fb 07 1b 3e
       0.10121158 -0.03489908 0.028577473 0.15139763
000040 8d 4b bf bd f7 e3 84 3b b3 d6 31 3e 0c 67 64 3e
       -0.09340582 0.004055496 0.17367058 0.22304934
000050 08 e6 ba bd ec ed 1c 3e a9 9d 13 bd 18 97 6c 3e
       -0.09125906 0.15325135 -0.03603903 0.23104513
000060 0d e3 a0 bd 89 60 31 3d fc c7 49 be d7 4e 94 3d
       -0.078558065 0.043304954 -0.19705194 0.072416
000070 aa ba a2 3c 4c cf 3c 3e 85 12 f4 bd a4 44 22 be
       0.019864399 0.18438452 -0.11917595 -0.15846497
000080 b7 89 87 3d b1 50 92 bd 04 a9 a5 3d 5d b6 80 bc
       0.06618064 -0.07144297 0.08088878 -0.015711958
000090 5a b2 2d be 20 86 ad 3d 12 ea 62 3d d7 f2 61 3e
       -0.16962567 0.08472848 0.055399008 0.22065292
0000a0 bc 1d 19 be bd 33 56 be 58 59 30 3e 3e a3 58 3e
       -0.14952749 -0.20918174 0.17221582 0.21156022
0000b0 8c 80 f8 3d 8c bc 80 be 5e ac 37 bc 01 14 fa 3d
       0.12133893 -0.2514385 -0.011210529 0.12210847
0000c0 b9 77 ab 3d 0a 80 19 3e 4b eb 13 3e cb 5a 85 bc
       0.08372445 0.1499025 0.14445226 -0.016278645
0000d0 6a 64 6b 3e 6f b8 3c 3e 2a aa 0d b9 23 0d 75 3e
       0.22987524 0.18429731 -0.00013510199 0.23930793
0000e0 f6 5c 81 3e e3 f3 e4 3d 10 28 df 3c 71 47 61 3d
       0.25266236 0.1117933 0.027240783 0.054999772
0000f0 5b 16 81 3c 2a 19 92 3c 6a 58 82 3d ca 78 32 3d
       0.01575773 0.017834265 0.0636452 0.043572225
000100 ba a8 3c bd f2 ac 51 be 78 3f 14 3e 8e 4a 86 3d
       -0.046059348 -0.2047613 0.14477336 0.06557189
000110 97 c6 9b bd e6 84 3f be 03 ae 89 be 7b 93 16 be
       -0.076062374 -0.1870304 -0.26890573 -0.14704697
000120 78 1e 40 be 97 af 22 3c d7 46 5e bc 09 dc a9 3c
       -0.18761623 0.009929559 -0.013566694 0.020734804
000130 3b e4 7b 3e 5c 12 30 3c 12 c3 38 be eb 6d 74 bd
       0.24598782 0.010746565 -0.18043163 -0.05967514
000140 19 20 be 3d 07 12 2e 3e 18 15 07 be f1 37 25 be
       0.09283466 0.16999064 -0.1319164 -0.16134621
000150 02 ef 5e be 5a a9 86 bd 4c 68 5f 3e d6 29 57 3c
       -0.21770862 -0.0657527 0.2181713 0.013132533
000160 b4 41 5b bd 37 39 7c 3d c1 f1 fe 3d 26 31 0a 3e
       -0.053529456 0.061578 0.12448455 0.13495311
000170 b0 24 ec bd 95 b6 21 3e b3 ce 1b be 38 3f fd 3d
       -0.11530435 0.15792306 -0.15215568 0.12365574
000180 c3 3c 6f 3e cd 7a 3a 3e 03 bd 94 bc 55 ac 55 3e
       0.23363023 0.18210907 -0.018156534 0.2086652
000190 e4 be 23 3c 58 df 57 bc 4c 7b 5f 3e e2 7c c3 3a
       0.009994242 -0.013175808 0.21824378 0.0014914537
0001a0 26 09 6c 3e b7 9f 07 be c1 3d 9a bd 47 87 82 3d
       0.23050365 -0.1324452 -0.0753131 0.06373458
0001b0 e3 3e ef bd 7d 67 94 3d e9 1c bd bc a9 e5 44 3e
       -0.116819166 0.07246301 -0.023085074 0.19228233
0001c0 1d e3 b0 3c 85 e9 68 3e bc f8 5c 3e 62 fb 1e bd
       0.021592671 0.2274533 0.2157926 -0.038813956
0001d0 23 81 fd 3b 9d 74 2c 3e 70 f3 c7 bd 47 37 21 be
       0.0077363416 0.1684136 -0.09763229 -0.15743743
0001e0 ca ca 81 bc d7 dd 2d 3e a5 ed b4 3d d3 55 68 3e
       -0.015843768 0.16979156 0.088343896 0.2268899
0001f0 ec 4d 1e 3d ca 14 cb bd e6 1e 5d be 49 6d 56 3d
       0.03864853 -0.099160746 -0.21593818 0.052350316
000200 7f 67 9a bd 74 fd c9 3d b3 f1 24 be 0e a4 82 be
       -0.075392716 0.098627955 -0.16107826 -0.2551579
000210 90 65 48 be 32 0a 40 3e d1 4d 3d 3b 46 0b f4 bd
       -0.19569993 0.18753889 0.0028885494 -0.11916213
000220 0b c0 cd 3c f7 13 1a be 1c 70 43 3e 15 52 08 3d
       0.025115987 -0.15046678 0.19085735 0.033281405
000230 d5 fd 50 bd 7d fa 3e be 58 c4 c8 3c 95 6e 0c 3d
       -0.051023323 -0.18650241 0.024507686 0.034285147
000240 d0 f2 ad 3c 20 e1 69 be ae e4 c3 bd e2 dc 0b 3e
       0.021233946 -0.22839785 -0.095651016 0.13658479
000250 67 34 fb 3d 44 d6 87 3d 48 cf ca 3d 85 1c d3 3b
       0.12265854 0.06632665 0.09902817 0.006442609
000260 07 c8 af 3d aa 55 9e 3d 02 48 85 3d 30 06 0e 3e
       0.08583074 0.07731183 0.06507875 0.13869548
000270 67 0a 64 bd b7 d2 85 bd 59 f1 29 bd 61 0e 0a 3d
       -0.055673983 -0.06534331 -0.041489933 0.03370512
000280 f7 b0 8f 3d e1 17 6c 3e 59 15 6a 3e 73 e1 27 3d
       0.07016175 0.23055984 0.22859706 0.04098649
000290 26 f9 c5 bd d1 41 46 bd 30 7b 4c 3e 74 99 cc 3d
       -0.09666662 -0.04840261 0.19968867 0.09990206
0002a0 9e 75 55 3e 5d 5a c9 3d 27 8e 69 be 84 c0 56 be
       0.20845649 0.098316886 -0.22808133 -0.20971876
0002b0 66 17 21 3d fb 62 19 3e 12 a8 58 3e d3 0a 46 bd
       0.039328955 0.14979164 0.21157864 -0.048350167
0002c0 da 45 78 be 7a 05 16 be 51 7a 07 3e 99 c4 2f 3e
       -0.24245396 -0.14650527 0.13230254 0.1716484
0002d0 8d 07 6f be 0c 6f 83 3d 1b 15 62 3c 33 2b 19 3e
       -0.23342724 0.06417665 0.013798977 0.14957885
0002e0 4b 4b e8 bd df 85 8b 3d a0 33 c0 3d 74 2c b6 3d
       -0.11342486 0.06812643 0.09384847 0.088951975
0002f0 05 53 c3 bd bc ca 3c 3e 0b 71 c1 bd 69 ed e5 3d
       -0.09537319 0.18436712 -0.09445389 0.11226923
000300 19 6e 41 3e ba 85 43 3e 90 07 25 be ef 77 09 3e
       0.18889655 0.19093981 -0.16116166 0.13424657
000310 cb a1 68 3e 0a 12 23 be c9 0f ee bd 4f 05 c3 bd
       0.22717969 -0.1592485 -0.116241045 -0.09522497

learned_1 f4 [8]
000000 bc 78 6b bd 07 89 a0 3c 9a 3e bf 3d c2 d3 32 be
       -0.05748819 0.01959659 0.09338112 -0.17463592
000010 bd 30 ad bc 64 00 1b 3d 4d 8a 1d 3e ee 66 89 3c
       -0.021141404 0.03784217 0.15384789 0.016772714

learned_2 f4 [256, 128]
000000 1f d5 11 3d 9f dd 4a 3d 02 2c 23 bd 8f f5 3b bd
       0.03560364 0.04952776 -0.03983689 -0.04588848
000010 8a 7d 0d 3d 71 f2 5f 3d 76 f6 c7 bc f9 6f ab 3d
       0.03454355 0.05467457 -0.024409514 0.083709665
000020 40 93 18 3e 82 bf 63 3d 41 d0 ca bd 8f dd 93 3d
       0.14899921 0.055602558 -0.099030025 0.07219993
000030 e7 10 08 3d 29 88 84 3d ad b7 6c 3d 96 8a 89 bd
       0.033219244 0.06471283 0.057792354 -0.06715886
000040 37 29 ab bd 90 0a 0e 3c 49 82 87 3c 5d 6f 9f bc
       -0.083574705 0.0086695105 0.016541617 -0.019462282
000050 56 f5 3b 3c b7 87 88 bd 6f a2 05 3d 83 7d d4 3d
       0.011472067 -0.066665106 0.032625612 0.10375502
000060 3b 68 52 3c d0 ee 42 3d 63 61 c6 3c 17 9a 51 bd
       0.012842233 0.04759103 0.02421636 -0.051172342
000070 b4 c2 d4 3d f5 9a 66 bd 01 a6 49 3c 6f df b2 bd
       0.10388699 -0.056300122 0.012307645 -0.08734023
000080 65 ea 80 3d 69 38 59 3d 38 1f 44 3c 1e b4 31 3d
       0.06294707 0.053032313 0.011970334 0.043384664
000090 6f 60 5f bd 5a 90 df 3d fd e8 e8 bb d6 a9 85 bd
       -0.054535326 0.10916205 -0.0071078525 -0.06526534
0000a0 8e e6 c1 bd 07 63 c7 bd a3 18 0b bd 71 dd 41 3d
       -0.09467803 -0.09735685 -0.033959042 0.047330324
0000b0 69 f2 ec 3d 94 e5 50 bd 45 09 26 bd ab 65 3e bd
       0.115696736 -0.051000193 -0.040536184 -0.046483677
0000c0 59 c4 88 3d 6d f8 8f bd 3f 54 28 bd ff 6f 9a bd
       0.06678075 -0.07029805 -0.04109597 -0.07540893
0000d0 79 6f 1f 3d 34 3a 7b bd 19 6d 36 bd 5f c6 27 bd
       0.038924668 -0.061334804 -0.044537637 -0.040960666
0000e0 74 51 4c 3d 68 40 17 3d 09 41 ea bc 4d 1c 3c bd
       0.049882367 0.036926657 -0.028595464 -0.045925427
0000f0 19 a0 c5 bd 92 fe ba bd 00 91 6e bd 74 a2 8c 3b
       -0.09649677 -0.09130587 -0.05824375 0.004291827
000100 00 cc 89 bd 98 81 2c bd ff bf 37 bc b7 9d b9 bd
       -0.06728363 -0.042115778 -0.011215209 -0.09063285
000110 e4 5c d8 3b 75 39 bb bd 6f 2a a5 bc 7e e2 6b bd
       0.0066028703 -0.091418184 -0.020161835 -0.057589047
000120 25 c8 1d bc cb a5 9d 39 37 89 6f 3d 75 e8 13 bd
       -0.009630238 0.000300689 0.058480468 -0.03611036
000130 4a 96 40 3d 00 e3 01 3e d0 1d b4 bc 64 17 07 3d
       0.047018327 0.1268425 -0.021986872 0.03298129
000140 c7 55 2c bd 26 49 04 3c d6 53 c3 bd f3 24 8d bd
       -0.04207399 0.008074081 -0.09537475 -0.06891813
000150 72 47 86 bc 54 38 9d bc 17 b3 43 bd 50 79 6f bc
       -0.01639149 -0.019191898 -0.047778215 -0.0146163255
000160 be 0a b3 bc 6d f7 04 3c 59 c3 f9 3d 82 c5 0b bd
       -0.021855708 0.0081156315 0.12195463 -0.034123905
000170 4e 80 0b 3d c9 dc a8 3d 46 d1 be 3b 90 c7 d7 bd
       0.034057908 0.082452364 0.005823287 -0.105361104
000180 6a d0 58 bd 32 6d f7 bc b2 d3 1e 3d bd 20 64 bd
       -0.052933134 -0.030203436 0.038776107 -0.055695284
000190 4b f8 7d 3d dc 4e 94 3d ab 24 42 bd fb 74 73 3d
       0.06200437 0.07241604 -0.04739825 0.059437733
0001a0 ed 19 08 3c 47 64 da bd be ff 65 ba f7 53 d0 bd
       0.008306962 -0.10663658 -0.00087737653 -0.10172265
0001b0 67 ed 3b bd 5f af ff bc 8b a2 17 ba 95 27 4b 3c
       -0.0458807 -0.031211553 -0.00057844137 0.012399574
0001c0 23 0d 9d bd 23 40 1f bc ed 75 92 bd 9a 12 c6 3c
       -0.07668521 -0.009719881 -0.07151399 0.024178792
0001d0 e4 49 04 3d 94 20 05 bd 38 de f8 bd 17 7c b2 bd
       0.03229703 -0.032501772 -0.1215176 -0.087150745
0001e0 72 98 25 bc 6c bd 2f 3d 81 78 ae 3d 10 a6 e2 3d
       -0.010107147 0.042905256 0.08519078 0.1106683
0001f0 21 0f b2 3d 66 ec 6f 3d 94 a5 b1 bd 9b 53 21 bd
       0.08694292 0.058575056 -0.0867416 -0.039386373
000200 05 fd d0 bc 54 fe 73 bd b3 fe af bd 7c 19 50 3d
       -0.025511274 -0.059568718 -0.08593502 0.050805554
000210 23 dc 67 3d 29 61 9f bc 65 a3 dc bd 21 07 d7 bd
       0.056606423 -0.01945551 -0.107733525 -0.104994066
000220 d2 34 45 3d f1 3c 83 bd c9 60 f1 bc 15 ec db 3d
       0.048146077 -0.06408108 -0.029465096 0.107383884
000230 d7 f0 1a bd 85 0e d3 bd 14 93 53 bd af f8 06 3d
       -0.03782734 -0.10305504 -0.051653937 0.032952007
000240 90 42 43 bd af 8f a5 bd b6 6e 1e 3d d2 17 b5 3c
       -0.0476709 -0.08084046 0.0386798 0.022106085
000250 cf 99 d8 3c 2f 54 73 bc 84 c1 73 3d f1 9a cf 3c
       0.02644053 -0.014851614 0.059510723 0.025342437
000260 30 4e 89 bd e9 b6 80 bd 2d b4 d9 3d 61 fb bf bd
       -0.06704366 -0.06284887 0.10630069 -0.093741186
000270 f5 35 84 3c d0 51 16 3d c7 45 d3 bd ba 13 0a 3b
       0.01613901 0.036699116 -0.10316043 0.0021068887
000280 bc fd 98 3b 47 4b 2c 3d 5d 4f aa bc cb e5 a3 3d
       0.0046689194 0.042063978 -0.020789796 0.08002814
000290 90 f4 00 bd 73 92 ce 3d 14 13 a7 bd e7 d9 41 3d
       -0.031483233 0.10086527 -0.08157936 0.04732695
0002a0 b0 c8 7d bd ec 4d 93 bb 0b 4f be 3c 7e 9a d5 bc
       -0.06195897 -0.004495373 0.02323105 -0.026074644
0002b0 df 24 80 3d 52 9f 20 3c 56 5b b0 3c 96 bd 67 3d
       0.062570326 0.00980361 0.021527927 0.056577288
0002c0 1d f8 26 bd e4 c6 7e bb 16 0c 38 bd 67 c2 ec bd
       -0.040763963 -0.0038875872 -0.0449334 -0.11560517
0002d0 9b d1 8d 3b f1 96 8c 3d 5e b0 9f bd c0 06 8f bc
       0.0043279654 0.06864727 -0.07797311 -0.017459273
0002e0 70 5d ae 3d 8c a4 ab bc f2 53 21 3d 1f 07 c7 3d
       0.085139155 -0.020952486 0.039386697 0.09718155
0002f0 b3 48 49 bd 00 a0 ee bd 9d b2 23 bd 22 4a 51 3d
       -0.049141597 -0.11651611 -0.03996526 0.05109609
000300 fc 4e f8 bc df ce 95 bc ca 51 6f 3d b1 dd 1a 3c
       -0.0303111 -0.01828712 0.05842761 0.009452269
000310 b3 f8 8e bd 53 bc 5c bb 3a 4e 2c 3d ae c2 a4 bc
       -0.06981029 -0.0033681586 0.04206679 -0.020112362
000320 7d 1d 6e 3d 9a 7c 84 3d 36 cd df 3d cc 17 b0 3b
       0.05813359 0.06469078 0.10927813 0.0053739306
000330 4d 4d 6d 3c bf e4 50 3d e0 76 52 3d cc 1b 67 bd
       0.014483762 0.0509994 0.0513829 -0.056422994
000340 d9 28 9e 3d b8 0b 00 39 e1 65 87 3d 79 db 9c 3b
       0.07722635 0.00012211397 0.06611229 0.0047869054
000350 94 d6 72 3d cb 7e 8f bc 3a 06 1e 3d 92 18 97 3d
       0.05928667 -0.017516514 0.038580157 0.07377733
000360 18 84 57 3d af ba 3c 3d 93 f1 fc bc 55 37 19 3d
       0.05261621 0.046076473 -0.03087691 0.037406284
000370 12 1f 16 3d b0 8b 3b 3b 22 bf 7f bd 90 23 ef bc
       0.036650725 0.0028617196 -0.062438138 -0.029191762
000380 83 aa 34 3d 1c 8b 77 bc bf 74 45 ba aa f7 7b bd
       0.044107925 -0.01510885 -0.000753235 -0.061515488
000390 ee 62 61 bd f8 f2 d4 3c 36 b4 dc bd 3c 57 d8 bd
       -0.055025987 0.025994763 -0.1077656 -0.10563514
0003a0 db 2b 28 bd fe c3 cb 3c 8d e2 d8 3d 94 c5 38 bd
       -0.04105745 0.02487373 0.10590086 -0.0451103
0003b0 db 13 2e 3b 73 e0 21 3d 67 0c c5 3c 42 28 5d bc
       0.0026562128 0.039520692 0.024053765 -0.013498368
0003c0 9b 41 5b bd f7 89 0d 3d 5b 61 86 bc 16 e3 2d 3d
       -0.053529363 0.0345554 -0.016403845 0.042452894
0003d0 2c 2a ab bd 97 70 85 3d f6 87 ab bd 30 2e 3c bd
       -0.08357653 0.065156154 -0.08375542 -0.045942485
0003e0 23 1d 8f 3d a3 a5 3f bc 15 a2 c8 3d 2b 34 d1 3d
       0.06987979 -0.011697206 0.0979654 0.102150284
0003f0 30 7c 41 3c 77 22 1d bd a1 50 8a bb 22 6e b0 bd
       0.011809394 -0.038362946 -0.0042210375 -0.08614756

learned_3 f4 [256]
000000 c0 d7 61 3d bc 18 81 bd b9 08 9f bd 14 03 cf bd
       0.055137396 -0.06303546 -0.077653356 -0.10108009
000010 fb be 8e 3d e8 60 3f bd e1 b3 4c bd d5 61 2c bc
       0.069700204 -0.046723276 -0.049976233 -0.010521372
000020 19 6c 87 3c 7d 42 5b bc d2 30 a8 bd 8e 14 87 3c
       0.016531037 -0.013382551 -0.08212437 0.016489293
000030 15 f6 79 bc 25 09 42 bd 67 05 a9 bd 7a 66 9f 3c
       -0.015256424 -0.047372002 -0.082529835 0.019458044
000040 55 2d 45 3d 27 e0 a4 bc 41 c7 ce bd e1 b4 fd bc
       0.048138935 -0.020126415 -0.100965984 -0.030970039
000050 2c af d9 bc 72 c7 a0 bc 96 00 65 bd 4b f2 4d 3d
       -0.026572786 -0.019626353 -0.055908762 0.050279897
000060 c2 09 47 3d b8 48 14 bd cb 41 d2 3c 6f 58 b4 3c
       0.04859329 -0.036202163 0.025666138 0.022014825
000070 e4 53 45 3d da cc 53 3d 1c 3b 87 3d 38 00 95 3b
       0.048175707 0.051709034 0.06603071 0.004547145
000080 e9 7e 28 bd bf d3 8a 3d 07 7f d3 bd ba 19 f1 bc
       -0.041136656 0.067786686 -0.10326963 -0.029431213
000090 8f 49 4a 3d 95 f7 ab 3c 65 7b 5f 3c 36 f3 e8 bc
       0.049386557 0.02099208 0.013640259 -0.028436285
0000a0 55 ba 1c bd 48 9a 85 bd d8 68 4d 3d b8 0c 4f bd
       -0.038263638 -0.065235674 0.050148815 -0.05054924
0000b0 91 ae f5 bc 7d 31 2e bd b9 aa b9 bd 84 80 37 3d
       -0.029990466 -0.042527664 -0.09065766 0.044800296
0000c0 0a 10 84 3d ef 97 cd 3d 44 0f 34 3b 7c fe 9c bd
       0.06448372 0.10038745 0.002747492 -0.076657265
0000d0 4e ea 1e bd 8d ff bd bb f7 83 b8 3d 54 3f 8f 3d
       -0.03879767 -0.0057982863 0.09009545 0.06994501
0000e0 78 f3 28 3c 78 97 51 3d a5 a5 22 bd 0b 96 7c 3d
       0.010311954 0.051169842 -0.039708752 0.06166653
0000f0 ce 6a 90 3c de ab bb bd b8 c1 76 3d 91 2e 17 3d
       0.017629053 -0.091636404 0.06024334 0.036909644
000100 7d 28 a2 bd e4 39 f9 bc 13 cc d5 ba 7e 98 45 bc
       -0.07917879 -0.030423112 -0.0016311429 -0.012060283
000110 06 0a dd 3d 17 a2 06 bb fb c5 1d 3d fa eb ac bd
       0.107929274 -0.002054339 0.038518887 -0.084434465
000120 37 ec 4e b9 9b 4d 96 bd dd 57 fd 3c f4 28 d2 bd
       -0.00019733688 -0.07339021 0.030925686 -0.102617174
000130 96 f2 67 3d a4 2d 8d 3d 74 b9 58 3d 88 52 e9 3c
       0.056627832 0.06893471 0.052911237 0.028481737
000140 ed 58 da 3c 26 4b 28 3d 6b 15 54 3d 12 ca 12 bc
       0.026653731 0.041087292 0.05177824 -0.00895931
000150 41 fa 8e 3d e0 2a c3 3c ec 6e a4 bd e0 67 a3 bd
       0.06981326 0.023824155 -0.08028969 -0.07978797
000160 9c 4f 66 3d ba e8 3a 3d 02 00 50 bd f3 29 99 bd
       0.056228265 0.0456321 -0.050781257 -0.07478704
000170 62 a5 12 bd b2 4f 8b bd 8b 3e 8e bc b1 35 a3 3d
       -0.035802253 -0.0680231 -0.017363807 0.07969225
000180 7c 87 81 3d 42 c3 74 bc 03 73 71 3d 64 33 57 3c
       0.0632467 -0.014939131 0.058947574 0.013134811
000190 a5 99 92 bd 42 b6 c0 3d d0 19 20 bc f1 be 86 bb
       -0.071582116 0.09409763 -0.009771779 -0.0041121175
0001a0 5a 78 9a bd 50 3e 5e bd 49 a6 b1 3d b4 be 2e bd
       -0.075424865 -0.054258645 0.086742945 -0.042662337
0001b0 59 36 c6 bd e7 2f 97 bd b5 5c 7b 3d d2 db 2b 3d
       -0.09678335 -0.073821835 0.06136771 0.041957684
0001c0 e0 82 80 3c da 39 77 bd e6 4c bc bd 5e 45 5b 3d
       0.015687406 -0.060357906 -0.09194355 0.05353295
0001d0 7b 26 ae 3d 4b 6a 8d 3d 6a dc 6f bd ed e7 5b bd
       0.08503433 0.069050394 -0.058559813 -0.05368798
0001e0 84 da 20 bd 4c 03 2f bb 83 c3 e6 3b 62 3a ae 3d
       -0.039270893 -0.0026704846 0.00704235 0.085072294
0001f0 1f 5c a7 bd 43 bd 6b bd f0 0c 91 3d 1e 76 97 b9
       -0.081718676 -0.05755354 0.07082546 -0.00028888969
000200 a6 d2 ab bd 84 e0 f9 3b 04 7d 7e bd 7a db 8d bd
       -0.083897874 0.0076256413 -0.062130943 -0.069266275
000210 2e 18 99 3c 00 a0 9c 3c 39 75 ce 3b ec 08 6d bc
       0.018688288 0.019119263 0.006300595 -0.014467459
000220 3f 8c 04 3d 5c ce 68 3c 56 e4 b6 3d 9a 72 15 3d
       0.03236031 0.014209356 0.089302704 0.036486246
000230 97 e1 30 3d cd 89 b9 bd c7 37 6f 3d 15 6c 52 3d
       0.04318389 -0.090594865 0.058402803 0.051372606
000240 0b b0 95 3d 35 ee 98 3d 13 5b cd bd 0f be 89 bd
       0.07308968 0.074673094 -0.10027137 -0.06725704
000250 c8 71 92 3d 10 91 dc 3c 32 17 e7 3d d4 bd a6 bd
       0.07150608 0.02692464 0.11283721 -0.081416756
000260 ad d6 f1 3d 04 94 1e bd d5 da 8d bc 2a 39 bd bd
       0.11808524 -0.038715377 -0.017316261 -0.09239419
000270 72 50 19 3d 16 f3 21 bc 82 f8 be bd 97 7a 41 3d
       0.037430234 -0.009884616 -0.09324743 0.04723605
000280 c3 1b 80 3a a2 0e e2 bc 90 7f 9b 3d 63 95 d6 bc
       0.0009773899 -0.027594868 0.0759269 -0.02619428
000290 12 b2 81 3d b8 03 48 bc 30 f4 05 3d 3c 9c c0 bb
       0.06332792 -0.012207918 0.03270358 -0.0058779996
0002a0 e6 3c 8f 3d 3d 37 a5 3d c3 76 36 bd 3e 2d 5a bc
       0.06994037 0.080671765 -0.044546854 -0.013316451
0002b0 03 44 42 bd a6 44 9c bd a6 b8 a7 bd 9d e2 a2 bd
       -0.047428142 -0.07630281 -0.08189516 -0.07953379
0002c0 fa 7c d8 bd a7 3e 01 bd ba 3c af bd 94 ad 29 3d
       -0.105707124 -0.03155389 -0.085565045 0.041425303
0002d0 e7 5b 10 bd a3 07 46 bd ff 51 9b 3d ea d9 d2 3d
       -0.035243895 -0.048347127 0.07583999 0.1029547
0002e0 af 71 4d bd 94 0f 8b bd 0f 5e bd 3c 5f 3f be bd
       -0.050157245 -0.06790081 0.02311614 -0.09289431
0002f0 a1 a7 34 3d 9d 48 90 3d 2c 4c 80 bd ac 1a e6 3d
       0.044105176 0.070451 -0.06264529 0.11235556
000300 90 88 bc bd 3e e5 26 3d 00 c4 94 bc 3b a7 8c 3c
       -0.09205735 0.040745966 -0.018159866 0.017169585
000310 cf 0a 8b bd 3d c2 87 3a 65 19 90 bd f8 58 a6 3d
       -0.06789171 0.001035757 -0.070360936 0.08122438
000320 93 85 72 bd 64 63 ca 3d 6f f9 92 3d 54 77 04 bb
       -0.059209418 0.098822385 0.07176482 -0.0020212727
000330 24 ca c2 3d d1 21 db 3d 9a f2 41 bd ce 33 e1 3b
       0.095112115 0.10699809 -0.047350504 0.0068726307
000340 6d 9e 39 3d 97 ad 8d 3d d3 f0 b6 3d ca e6 8c bd
       0.045317102 0.06917875 0.08932652 -0.06879957
000350 17 1b 62 3d 99 1e de bd a5 1d 4d bd fa da 47 bd
       0.055201616 -0.1084568 -0.0500771 -0.048792817
000360 e5 49 9a bd 5f 9a 73 3d a8 0d 6a 3c 9b d2 ba 3d
       -0.075336255 0.05947339 0.0142854825 0.09122201
000370 ca 64 44 bd 39 05 80 3d 3f b7 e4 3c 68 55 a9 bd
       -0.047947682 0.06250996 0.02791941 -0.08268243
000380 b8 0d 45 bd 1a 4a 9d bc 6e d2 af 3d 23 6b e8 3d
       -0.048108786 -0.019200373 0.08585058 0.1134856
000390 25 d6 21 bd cd cd f2 bc 95 2f ab 3d c4 75 37 bd
       -0.039510865 -0.02963915 0.08358685 -0.044790044
0003a0 70 29 88 bd 23 e4 a8 3d be a2 69 3d f6 4d ea 3b
       -0.066485286 0.082466386 0.05703997 0.007150407
0003b0 96 56 ab 3d a5 3c 52 3d f8 f5 c8 bd fb 2c 9f 3d
       0.08366124 0.051327366 -0.0981254 0.07772251
0003c0 b1 19 81 3d 0b c6 a4 3d 5a 03 5d 3c 6d 4f e6 3d
       0.06303728 0.08045586 0.013489569 0.11245618
0003d0 39 1e 60 bc b0 01 04 3d 88 19 8a bc 3b b3 90 3b
       -0.013679081 0.03222817 -0.016857877 0.004415897
0003e0 62 d7 6a bd 9b 78 e1 3b 4d 92 2b bd 97 5a dd bd
       -0.05733431 0.0068808324 -0.04188757 -0.10808294
0003f0 1e cf a2 bd e8 6e b0 3c 07 00 9c bd 8c 02 72 3b
       -0.07949661 0.02153726 -0.07617193 0.0036927788

learned_4 f4 [256, 256]
000000 64 8f ed 3c b5 b4 c4 3c a8 10 e1 bc 61 0f 49 3c
       0.028999038 0.02401195 -0.027473763 0.012271733
000010 5e bf 1c 3d 71 4e 68 b9 a3 8b ce 3c cd 23 1a 3d
       0.03826844 -0.00022154466 0.025213068 0.0376318
000020 0d 38 07 3c bf 2b ba bb ed 58 52 bd ae a1 4c 3d
       0.00825311 -0.0056814845 -0.051354337 0.049958877
000030 7e 8a 59 3d 8a 52 9c 3d b2 ea 0e 3c c4 9d 38 3d
       0.053110592 0.076329306 0.008722948 0.045072332
000040 1d 06 f6 3c 7b 44 3b 3c e7 b3 99 3d 59 1e 01 3d
       0.030032212 0.011429901 0.07505017 0.031523082
000050 ff 57 40 3d 15 94 98 3d 6b e1 56 3c 74 68 c3 bd
       0.04695892 0.074501194 0.013115267 -0.09541407
000060 f5 da 44 3c 8e e5 73 bd 58 40 1b bd 10 ba fa bc
       0.012015094 -0.059545092 -0.03790316 -0.0306063
000070 4b f6 d2 3d 66 50 37 3d f8 5d 50 3c 96 35 8d 3d
       0.10300883 0.04475441 0.012717716 0.06894986
000080 0c 9f b0 bd 41 83 03 bc f4 d1 77 bd c4 9c 6d 3d
       -0.08624086 -0.008026899 -0.06050296 0.05801083
000090 8d b2 9a 3c 98 d8 2f bd bf b8 17 3d 66 79 31 bd
       0.018883968 -0.04293117 0.037041422 -0.043328665
0000a0 22 90 a1 3c c2 51 45 bd 3c e3 b7 3d f2 06 f7 3c
       0.019722048 -0.048173673 0.089788884 0.030154679
0000b0 e9 77 19 3d 71 ff 06 bd c1 53 7a bd 66 3d 28 bd
       0.03746787 -0.03295845 -0.06111503 -0.04107418
0000c0 c9 aa 9b 3d 18 84 a4 3d 58 47 99 3a 34 1c 7c 3c
       0.07600934 0.080330074 0.0011694236 0.0153875835
0000d0 23 e9 a8 bd 2d b8 ec bb bf 2e 6c bd 69 ea f9 bc
       -0.08247592 -0.007224104 -0.057661768 -0.030507283
0000e0 90 57 0d b9 a0 dc 3f ba 04 bd 72 3d 9d b8 3f ba
       -0.00013479427 -0.00073189475 0.05926229 -0.00073135813
0000f0 cc 93 95 bd 6d 52 9f bc 09 e8 7d bd 30 07 76 3c
       -0.07303581 -0.019448483 -0.061988864 0.015016362
000100 06 f7 4d 3c 68 ee 94 3c ee 42 80 3c f1 3d 5e bd
       0.012571102 0.018180087 0.015656915 -0.05425829
000110 47 04 a8 3c f1 4e 36 3d 6f ac d2 bd 08 19 fb 3c
       0.020509852 0.04450888 -0.10286795 0.030651584
000120 5e 10 b1 bd 9c a1 c7 3c e9 5a 40 3c 39 54 36 bd
       -0.086457 0.024369054 0.011740425 -0.044513915
000130 e7 c3 cf 3c cb 06 05 bd 5c fd 29 bc 1b ad 01 bd
       0.025361968 -0.03247718 -0.010375347 -0.031659227
000140 e9 8c a8 3c ea f0 5c 3c a2 4b 8e 3d 3c df 4c 3c
       0.020575004 0.013485173 0.069480196 0.012504395
000150 fe 44 b1 3c c3 42 a1 bd 5b 85 cb bb 67 c2 a7 bc
       0.021639343 -0.07874062 -0.0062109656 -0.02047844
000160 23 c2 85 3d ad c6 61 bd d4 2e 80 3c e6 c1 1c bd
       0.06531169 -0.055121113 0.01564733 -0.038270853
000170 dd 92 4e ba 82 57 e8 3c c2 7d 8a 3d b8 00 3e bd
       -0.00078801607 0.02836204 0.06762268 -0.046387404
000180 a9 af 87 3d 6d 82 62 bd 94 6a 13 3d b0 d6 07 bd
       0.066253014 -0.055300165 0.035990313 -0.033163726
000190 e3 10 e6 3b 54 3c 3b bc e0 7a 00 bd 91 7e 2e 3d
       0.007021056 -0.011427958 -0.031367183 0.042601172
0001a0 5b 58 22 bd 51 ff f1 3c 72 91 5e bd 15 5b e9 3a
       -0.039635044 0.02954069 -0.054337926 0.0017803634
0001b0 a7 37 47 bd bc 4b a5 3b a0 35 5a bd 4d ba 24 bd
       -0.04863706 0.0050444286 -0.053273797 -0.040216733
0001c0 4a 84 95 3c ff 21 37 bd af 36 8f bc 18 58 57 3b
       0.018251557 -0.044710156 -0.01748213 0.0032858904
0001d0 70 1d 49 bd 8a 76 bc 3c 0c 68 48 3d 10 18 f2 3a
       -0.04910034 0.023005743 0.04892735 0.0018470306
0001e0 60 a9 4e bd a7 5c 0d bd 08 c3 09 3d a7 b5 63 3d
       -0.050454497 -0.03451219 0.033633262 0.05559316
0001f0 54 48 2f bd bd 73 aa bd 60 ad 7a 3d fc c7 2f bd
       -0.042793587 -0.083228566 0.0612005 -0.04291533
000200 82 98 f7 3a 91 71 dc 3c fb 5c 82 bd 46 c8 bb 3c
       0.0018890055 0.026909621 -0.06365391 0.022922646
000210 70 0b 94 3c a6 9a 82 bd 26 cb c6 bb 80 b9 f6 bc
       0.01807186 -0.06377153 -0.0060666976 -0.03011775
000220 42 0a 6c bb 19 b7 3c 3d 6e 57 c5 bc a0 c0 f7 3c
       -0.0036016856 0.046073053 -0.024089541 0.030243218
000230 7d b1 67 3d ad ea 50 bd ce 1e ee 3c 3c 7e 92 3d
       0.05656575 -0.051005054 0.029067423 0.071529835
000240 1c 5c 7a bd 26 98 58 bd c9 9d a9 bc ff b1 95 3c
       -0.061123 -0.052879475 -0.02070512 0.018273352
000250 9e e5 4d bd 20 0d ae 3d d6 01 2d bc 83 96 e6 3b
       -0.05026781 0.08498597 -0.01055952 0.0070369854
000260 70 8b 57 3d cc 69 4d 3c f3 91 41 3c 41 4d 7f bc
       0.052623212 0.012537431 0.011814582 -0.015582384
000270 ef ef 83 3c 0a eb 6d bc 90 f6 e2 bc af dd 00 bc
       0.01610562 -0.01452137 -0.02770546 -0.0078653535
000280 93 12 35 3d cf 03 c6 bb 25 2d 0e bd cc bf 42 bb
       0.044207167 -0.0060429345 -0.034711022 -0.002971637
000290 88 55 65 bd 2b 7f 22 3d cc 1b ac 3c d5 63 0b bd
       -0.055989772 0.039672058 0.021009348 -0.034030754
0002a0 00 f3 0b 3d 68 a7 56 3d 10 3e a1 bb d9 ef b4 ba
       0.03416729 0.052405745 -0.0049207285 -0.001380439
0002b0 d7 a9 01 3c 9a ca 2a 3d 9c 19 e3 bc 91 ba 3e 3d
       0.007914028 0.041697122 -0.027722172 0.046564642
0002c0 7a 62 c5 3c ef eb 92 bc 26 ed ae bb a8 28 7f 3b
       0.024094809 -0.017934768 -0.005338329 0.0038934145
0002d0 b3 98 70 3d 95 6c 1c 3b 96 b9 71 3d 18 12 44 3d
       0.058739375 0.002386843 0.05901488 0.047868818
0002e0 58 9d 29 3d ba e0 4d bc 6d de 77 3c 4b f6 a2 bd
       0.04140982 -0.012565786 0.015128714 -0.07957133
0002f0 7f 63 58 bc 94 51 88 bc f7 a1 8d bc c1 58 4e 3d
       -0.0132073155 -0.016640462 -0.017289145 0.05037761
000300 d1 ee a5 bd fa 5b a7 3c c4 aa c7 bc f6 a0 50 3d
       -0.08102191 0.0204296 -0.02437342 0.050934754
000310 e8 8a ea 3c b5 bb 0b 3d 1e 48 53 bd 60 94 ed bc
       0.028630689 0.03411456 -0.05158245 -0.029001415
000320 fb b8 34 bd 53 e9 ac bc d6 08 c3 3c b6 f1 ab 3b
       -0.044121724 -0.021107351 0.023807924 0.00524732
000330 e9 1d 69 3d be 4b 31 3d 7e 16 b6 3c 97 41 f2 3c
       0.05691329 0.043285124 0.022227522 0.029572291
000340 6e ce 35 bd db 9f 2c 3c 2e 06 28 bd eb 39 b5 bc
       -0.04438632 0.010536159 -0.04102152 -0.022122344
000350 b7 04 5e bd 95 cb e5 3b 7d a9 43 bc cd e3 56 bb
       -0.054203715 0.0070127943 -0.011942265 -0.0032789588
000360 e0 1d a3 bc 9d b3 4c bd 87 f3 67 bb 40 42 18 3c
       -0.019911706 -0.04997598 -0.0035392956 0.009293139
000370 72 0a 8e 3b ba 2e 16 3d ea 77 87 bc ea 0d 01 bd
       0.0043347413 0.036665656 -0.016536672 -0.03150741
000380 93 b6 8a bc 74 72 22 bd 2c bd 82 bd ea a1 4e 3d
       -0.016932761 -0.039659932 -0.06383738 0.050447382
000390 72 da ae bd 9f b4 38 bd 1a 8c 9d 3c 1d 92 70 3d
       -0.08537759 -0.04509413 0.019231845 0.058733094
0003a0 59 bf 9c 3c 3e a8 46 bd 7b 9e a7 3d 03 c1 e0 3c
       0.01913421 -0.048500292 0.081845246 0.027435785
0003b0 bd 5a 99 bd b0 03 55 3c 50 1f 54 bd a6 89 56 3b
       -0.0748801 0.013001367 -0.051787674 0.0032735853
0003c0 f8 94 4f bd 71 22 bf 3c 45 cd 20 bd 94 3a de 3c
       -0.050679177 0.023331853 -0.03925826 0.027127542
0003d0 ed e4 4c bd 0e 35 24 3d d1 35 7d bd dd 38 ec b9
       -0.05002301 0.04008966 -0.0618189 -0.00045055794
0003e0 9f 20 a7 bd 9a 9c 10 3d b9 ae 87 bb 36 a7 49 bd
       -0.08160519 0.035305597 -0.0041407016 -0.04923173
0003f0 d1 0f 51 bd b5 9d 8d bd dc 27 2c 3d 8d f1 22 3d
       -0.051040474 -0.06914846 0.0420302 0.039781142

learned_5 f4 [256]
000000 49 48 1c bc a7 8b 34 bd 24 4b 35 3d ce c1 9f 3c
       -0.0095387185 -0.044078495 0.044261113 0.019501593
000010 76 e7 2f bd 57 8d 13 3d 8e 14 75 3c c2 0f 8b 3d
       -0.042945348 0.036023464 0.014958514 0.06790115
000020 ec cb a0 bc 8a c4 38 3d 50 60 08 bc 91 52 8b ba
       -0.019628488 0.04510931 -0.008323744 -0.0010629465
000030 04 a5 95 3b 08 a2 31 bd ff 1f 5b 3d 3b aa 67 bd
       0.0045667905 -0.043367416 0.05349731 -0.05655883
000040 f9 46 1b 3d c6 34 16 3c ce cc 4a 3b e3 9e 8d 3d
       0.03790948 0.009167856 0.0030944827 0.06915071
000050 eb 6d 36 3c 82 4c c3 3c c7 0a 07 3d 23 ac 19 3d
       0.011134605 0.023840193 0.032969262 0.037517678
000060 35 6c 2f bd 9b d1 84 bc 9e 1b 48 bd c2 dc 32 3c
       -0.042827804 -0.016213229 -0.048854463 0.010916891
000070 bd df 10 bd 36 f5 96 bd 2a 0d 22 3d eb aa 1b bc
       -0.035369623 -0.07370989 0.039563335 -0.009501199
000080 a2 30 e6 3c be a0 95 3d a5 02 30 bd 89 6b 0f bd
       0.028099362 0.0730605 -0.042971272 -0.035014663
000090 e5 d4 aa bc e3 d3 13 3d 96 c1 85 bd 07 55 4c 3c
       -0.02085347 0.036090743 -0.06531064 0.012471444
0000a0 a4 b9 03 3d 0d ad b3 bc 70 a5 38 bd 01 8b 4d bd
       0.032159463 -0.021933103 -0.04507965 -0.050181393
0000b0 59 ee 16 bc 04 50 26 3c 85 68 b2 bb 0c 18 20 bd
       -0.0092121 0.010150913 -0.0054445886 -0.039085433
0000c0 37 49 c0 bc 85 cb a1 3d a7 ec ac bc 09 96 30 bd
       -0.023472412 0.079001464 -0.021108938 -0.043111835
0000d0 fa 03 12 3b 9c 3f 02 3d db bd 69 3d 8b b7 39 3d
       0.0022280202 0.031798944 0.057065826 0.045341056
0000e0 1f e9 89 bd fe ce 97 3d d3 fa ed 3c ac 67 93 3d
       -0.067339174 0.074125275 0.029050266 0.07197508
0000f0 ce 79 17 bd 0c ac c6 bc b9 89 2d bc 9d 44 65 bd
       -0.036981396 -0.02425196 -0.010591918 -0.055973638
000100 cf cb 6f bd 2b 46 e4 bc 8a be f9 bc 24 0e 2b bc
       -0.058543976 -0.02786549 -0.030486364 -0.010440383
000110 1c bd 19 3c ff 96 67 3d d4 1d 0e 3d ec e1 22 3d
       0.009383466 0.056540485 0.034696415 0.039766237
000120 d8 4f 37 3d f1 f8 9f bc e5 ed d8 3c f5 31 f8 3c
       0.04475388 -0.019527884 0.026480624 0.030297259
000130 22 a8 44 bb 54 9d e3 bc b0 22 08 3d 1d 6e ca bc
       -0.0030007442 -0.02778498 0.033236206 -0.02471071
000140 46 bf 01 3d 1d 5a 40 bd f7 14 ef 3c ac aa 2c bd
       0.031676553 -0.04696094 0.029184802 -0.042154953
000150 66 01 4c 3d f3 04 fc 3a 7f 16 69 bc 59 9b bc b9
       0.04980602 0.0019227549 -0.014226555 -0.00035973897
000160 70 04 8b 3d ee 35 85 bd 38 c6 95 bc 3c c7 5b b8
       0.06787956 -0.06504427 -0.018282995 -5.239922e-05
000170 a5 a5 a4 bd 12 fb 0e bd fd 35 34 bc 04 be 90 3d
       -0.08039407 -0.034907408 -0.0109992 0.070674926
000180 5f 67 fd 3c 93 22 81 3d 42 ab 03 3d 6c 38 16 3d
       0.03093308 0.06305423 0.032145746 0.0366749
000190 b2 20 27 bd 7c 17 5a bd 55 8a 1d bd 54 c1 41 bd
       -0.040802665 -0.053245053 -0.038462 -0.047303513
0001a0 2b 2c 01 b9 8e 57 e2 bb d4 65 8c 3c b6 e4 11 3c
       -0.00012318853 -0.00690741 0.0171384 0.008904627
0001b0 95 22 54 3d 17 24 26 3d be f5 1a 3d 02 d8 77 b8
       0.051790792 0.04056176 0.037832014 -5.9090562e-05
0001c0 b0 12 08 bd 46 17 3b bd 28 d5 87 3c 0f fc e2 ba
       -0.033220947 -0.045676492 0.016581133 -0.0017317551
0001d0 39 8b 9a 3d 07 c7 3c bd fb c8 37 bd 7e ec 4d bc
       0.07546086 -0.046088245 -0.044869404 -0.012568591
0001e0 b8 4b 7e bd 37 ae de 3c 59 83 e4 3c 05 89 b2 3b
       -0.06208393 0.027182681 0.027894663 0.005448463
0001f0 03 7f 38 bd 5e 0d 3d 3d e0 c0 a9 bb f0 61 c6 bc
       -0.045043003 0.046155326 -0.005180463 -0.024216622
000200 7e 4a f4 bc 56 86 a5 bb f0 39 b5 3c 8c 28 80 bc
       -0.029820677 -0.0050514145 0.022122353 -0.015644334
000210 e6 26 69 3d 97 6c 87 3d 67 e6 1a 3d 6d e5 37 bd
       0.056921862 0.06612509 0.037817385 -0.04489653
000220 e7 8f 0d 3c 56 2b ad bd 59 46 13 3d 0d d8 0e bd
       0.008640266 -0.08455531 0.03595576 -0.03487401
000230 34 70 03 3d 56 cf 8b bd b6 cc f7 bc b8 8c 55 3d
       0.032089427 -0.068266556 -0.030248981 0.052136153
000240 5b 64 0a 3d 5e f4 11 3d 4f 72 82 bd 40 b2 87 bc
       0.033787113 0.035633437 -0.06369459 -0.016564488
000250 85 d6 9f bc 07 fc 8c 3d 7e 04 1f 3d 33 a2 08 bd
       -0.01951147 0.06884008 0.038822643 -0.03335781
000260 84 37 62 bc 38 52 39 3d 6d 4a 23 3d d1 9a 23 3d
       -0.013807181 0.045244426 0.0398659 0.039942566
000270 10 ff 17 3d 8e ef 8a 3d ea b6 0a bd 38 83 e8 3c
       0.03710848 0.06783973 -0.033865847 0.028382882
000280 c1 56 97 3b b5 c5 d2 3c ed fb e2 bc 29 e4 15 bd
       0.004618496 0.02572904 -0.027708018 -0.036594544
000290 6a 1d 5f bc cd f7 96 3d 8b cc 3e bd 9a 1e 9a bb
       -0.013617853 0.07371483 -0.046581786 -0.004703355
0002a0 8b 40 2d 3d 19 aa 0a ba 22 44 51 bd ac 93 11 3c
       0.04229788 -0.0005289629 -0.051090367 0.008885305
0002b0 2b 56 18 bd f4 cc 2f bd 4e 72 5b bd fe 60 95 bc
       -0.03719155 -0.042920068 -0.053575806 -0.018234726
0002c0 68 fb 64 bd b4 6b 78 bd f7 aa 4e 3d d3 57 88 3d
       -0.055903822 -0.06064959 0.050456014 0.06657376
0002d0 dd 5e f3 3c bb f6 ba bc 59 0c 61 bd e8 ba 4b bd
       0.02970832 -0.022822728 -0.054943416 -0.049738795
0002e0 e9 5e e3 3b d1 18 37 bc 5e 9f dd bc 8a 8f cc bc
       0.0069388044 -0.01117535 -0.027053531 -0.024970789
0002f0 8b 39 1c 3d 65 d6 28 bd dc 05 5b 3d 02 56 51 bd
       0.038140815 -0.041220088 0.053472385 -0.051107414
000300 ee e1 a9 bc 0d f6 4a bb da 0f 4f 3d d4 b7 8b 3c
       -0.020737614 -0.0030969412 0.050552227 0.01705543
000310 68 89 a6 bb 1f 30 5c 3d a2 0b 6a 3c ae 2c 18 bc
       -0.005082298 0.05375683 0.014285 -0.009287996
000320 be 1d 40 bb e6 2d d4 bc 61 87 dc bc c9 19 fd 3c
       -0.0029314603 -0.025900792 -0.026920022 0.030896084
000330 50 f8 74 bc 55 f8 a6 bd db 7b d5 bc 3a 43 a7 3c
       -0.01495178 -0.08152834 -0.026060035 0.020417798
000340 d2 f3 2b 3d ed 1c c1 bc 92 d1 50 bd 9a 21 fa 3c
       0.041980572 -0.023573363 -0.05098111 0.0305336
000350 36 e0 1c 3d 56 4d c0 b9 72 6d 6e 3d c4 a9 00 bd
       0.03829976 -0.00036678714 0.058209844 -0.0314119
000360 25 2c 42 3d 04 be 80 bc c5 50 8b 3d 30 75 5a bd
       0.04740538 -0.015715607 0.06802515 -0.053334415
000370 bf 1e 8c bc 23 b3 78 bd 6d 25 0c bb 7a 65 33 3d
       -0.017104505 -0.060717713 -0.0021384612 0.043797947
000380 92 54 ba bc 8e f3 22 3d 2e be 80 3d 67 37 50 3d
       -0.022745404 0.039783053 0.06286274 0.050834086
000390 d0 a6 0b 3d 48 72 b5 bc e1 94 91 bc 94 53 ed bc
       0.03409463 -0.02214922 -0.017771186 -0.028970517
0003a0 59 6d 3b bd c8 4e e9 ba 2e 0d 34 bd b5 f5 60 bc
       -0.04575858 -0.0017799968 -0.04395788 -0.013730456
0003b0 12 61 d0 bb 08 9f ae 3b 2c 9f 20 3d b7 3b 28 3d
       -0.006359228 0.0053290166 0.039214298 0.041072574
0003c0 51 8b 48 3d 5b c5 0f bd 56 eb 8f ba 7f 1f 6c bd
       0.048960987 -0.035100322 -0.001098017 -0.057647225
0003d0 6d 83 09 ba 1f a1 6b bd 5c d2 a2 bb 93 70 1f 3d
       -0.0005245719 -0.057526704 -0.0049689244 0.03892572
0003e0 d6 cc 43 3d 75 e3 3c bc cd 52 85 3d 44 8c 0d bc
       0.04780277 -0.011528839 0.065099336 -0.008639399
0003f0 6b 21 8d bd 65 9c 90 3d ac 42 e9 3c bb 07 25 bc
       -0.068911396 0.0706108 0.028474174 -0.010072644

learned_6 f4 [10, 256]
000000 64 ee 9c bd 43 86 dc bb 1f 5a be 3d da 4c 5f bd
       -0.07662657 -0.0067298724 0.09294533 -0.05451665
000010 a2 42 90 bd 90 b4 b1 bb a7 63 03 3d c8 bf c0 3c
       -0.07043959 -0.005423136 0.032077458 0.023528948
000020 d0 43 c1 bd df b1 ba bd 6d ee 78 3d db 15 16 bd
       -0.09436762 -0.091159575 0.060774256 -0.036641937
000030 16 1b 6e 3d a8 a9 45 3d ef 89 85 bd 13 04 93 3d
       0.0581313 0.0482575 -0.06520449 0.071785115
000040 48 9b b9 3d d2 dd c2 3d c3 d1 47 3d c4 56 c7 3d
       0.09062821 0.09514965 0.04878403 0.09733346
000050 51 fd 6b 3c 6e cf bf 3d fe 25 8a 3d cf ee c1 bd
       0.014403657 0.09365736 0.06745528 -0.09469377
000060 0a 9a ac 3d 13 0c c3 bd 1b c0 cd 3c 30 f5 2e 3d
       0.08427818 -0.09523787 0.025116017 0.042714298
000070 df ec 9a bc 3c ab d4 3d 32 3b 18 3c 9b b4 b0 bd
       -0.018911777 0.10384223 0.009291457 -0.08628198
000080 6d ea 8d 3d 0a b3 a7 3c 7a 30 a3 ba d0 2f 93 3d
       0.06929479 0.020471115 -0.001245036 0.07186854
000090 0b 5d 47 3d c5 b7 4e 3c 37 3b ba 3d f3 09 07 bb
       0.048672717 0.012617056 0.090933256 -0.0020605295
0000a0 29 cf 75 bd e5 96 c3 3c f7 3d aa 3d 74 06 7a 3d
       -0.060012016 0.023875663 0.083126 0.06104131
0000b0 41 86 3b bd ea f7 59 bd 8d fc 5f 3d 22 59 83 bd
       -0.04578233 -0.053214945 0.05468421 -0.06413485
0000c0 14 bd 45 3d 52 aa 9d bd 95 86 96 bd 81 50 46 bc
       0.048276022 -0.07698502 -0.07349888 -0.012104155
0000d0 68 79 01 3d 98 c0 6b 3d fa 17 af 3d d2 4a 62 bd
       0.031609923 0.05755672 0.08549495 -0.055247135
0000e0 58 e3 67 3d e1 06 93 bd c4 4d 68 bd 61 85 1d bd
       0.056613296 -0.071790464 -0.056714788 -0.03845728
0000f0 9f d7 18 bd 8c cf 21 bc 68 a5 88 bd 39 b1 dd bd
       -0.037315007 -0.009876143 -0.06672174 -0.10824818
000100 5f e9 fe 3c 4c 8d e6 bc fc 21 bb 3d 4e 54 ad bc
       0.03111714 -0.028143547 0.091373414 -0.021158364
000110 33 1d 77 3b ca dd be 3d 90 17 b6 bd 7c 99 00 3d
       0.0037706613 0.09319647 -0.08891213 0.031396374
000120 13 a5 81 3d c0 ee 6f 3d fd 24 88 3d d8 42 06 bc
       0.063303135 0.0585773 0.0664768 -0.008194648
000130 0b 45 ac 3b c4 e2 f0 3d f5 3a 8e 3a 7c f5 cb 3c
       0.005257254 0.11762002 0.0010851311 0.02489733
000140 eb 1d be 3c 73 cf b0 bd aa 54 8a 3b 9c fe bd 3d
       0.023207625 -0.08633318 0.0042215185 0.092770785
000150 4d 21 02 3d cc 0a 91 bd f4 6d d3 3b 7d 6d 5d 3d
       0.03177004 -0.070821375 0.0064523164 0.054059494
000160 37 1c 86 3d bd 66 d0 bd ce 48 b4 bd 87 66 a2 3d
       0.0654835 -0.10175846 -0.08802949 0.07929712
000170 4c 6e 7b 3d 75 d6 95 3b 77 42 b8 3d f6 31 a3 3d
       0.061384484 0.0045726844 0.08997052 0.07968514
000180 0b 93 c2 3c 02 61 23 bd d3 fb 8c 3d 68 95 8c 3d
       0.023751756 -0.039887436 0.06883969 0.068644345
000190 5a d1 54 3b cc 66 70 bc e0 64 8a 3c c3 2a 03 3b
       0.0032473416 -0.014672946 0.016893804 0.0020014502
0001a0 23 c2 95 bd 58 93 2d 3d 14 4e 04 3c 12 2f 28 3d
       -0.07312419 0.042376846 0.008075256 0.041060515
0001b0 c5 df fa bc dd c6 77 3d 2a 92 ae 3c b7 c8 07 bc
       -0.03062428 0.060492385 0.02130993 -0.0082876
0001c0 52 fa 9c 3d d4 a9 da 3d 24 68 57 bd 2d 68 94 3d
       0.07664932 0.106769234 -0.05258955 0.072464325
0001d0 fd 37 c3 3d ce cb 9e 3d a3 c1 9b bc 28 24 16 3d
       0.09532163 0.077537164 -0.019013232 0.036655575
0001e0 5c dd 92 3d df 8a d5 bc 66 b6 5d bd 23 74 82 3c
       0.07171127 -0.026067195 -0.054129027 0.015924519
0001f0 4a 87 c8 bc f1 f1 10 3d d5 75 10 3b 8a c8 22 3d
       -0.024478573 0.035386983 0.002204289 0.03974203
000200 49 e0 a0 bd 69 4b 75 bd b1 e5 35 3d d4 cb 91 3d
       -0.07855279 -0.05988637 0.044408504 0.07118955
000210 59 71 96 bd d4 49 4b bd d3 f4 2a bc 87 c8 08 3d
       -0.07345838 -0.049630955 -0.010434347 0.033394363
000220 fb 91 cf 3d 88 e9 c0 3d ff 94 cf bb 90 ec b8 bd
       0.101352654 0.094195426 -0.0063349004 -0.09029496
000230 db a4 93 3d f5 3b a2 3d 2f 0d d6 3d a3 6a 42 3d
       0.07209178 0.07921592 0.10451733 0.047464978
000240 bf 2f c2 bc 41 e5 10 bd 73 6e dc 3d ea 7d 82 3d
       -0.023704408 -0.035374884 0.10763254 0.063716725
000250 be f7 b1 bd 9a ce b8 bd 8a 2f 35 bd 25 6d dd bd
       -0.08689831 -0.09023781 -0.04423479 -0.10811833
000260 1b 92 f8 bc c7 90 b3 3c ed 3c 0f 3b 1b db ac bd
       -0.030343106 0.021919621 0.0021856383 -0.084402286
000270 19 d9 50 3d 04 c0 eb bc f4 65 d1 bd 2a 51 3e 3d
       0.05098829 -0.028778084 -0.10224524 0.046464123
000280 68 c1 14 bd 16 43 d3 bd e2 87 82 bb 89 26 c1 bd
       -0.03631726 -0.1031553 -0.0039834836 -0.09431178
000290 1d fa fa bb f8 73 87 bd 01 34 4d bd e6 b4 ca 3c
       -0.0076592104 -0.06613916 -0.050098423 0.024744462
0002a0 f1 47 60 bd b1 78 4f bd e3 1d 5d 3d 74 80 92 bd
       -0.05475611 -0.05065221 0.05398358 -0.07153407
0002b0 3c c0 ba 3d 3b 93 be 3d 15 93 d6 3d e4 69 53 bd
       0.09118697 0.09305426 0.104772724 -0.051614657
0002c0 27 f7 fd bc d9 ff 5a bc 6b b9 55 bd 47 d6 b0 bc
       -0.03100164 -0.013366663 -0.05217878 -0.02158655
0002d0 01 6e a9 bd 84 22 0f bd 6a 05 92 bd 8e e9 99 3d
       -0.08272935 -0.034945026 -0.07129939 0.0751525
0002e0 84 7d 6b bd eb 9c 98 bd 7f f0 4f bd 46 06 ba 3d
       -0.057492748 -0.07451805 -0.050766464 0.09083228
0002f0 05 b1 bb 3b a5 3e a6 3d ca 7a ac bc 34 3f d0 bd
       0.0057278895 0.08117417 -0.021054644 -0.10168305
000300 d8 4a 3d bd 91 7b 1e bb 4a f2 87 bd 10 7b 30 bd
       -0.046213955 -0.0024182538 -0.0663801 -0.04308611
000310 cc 99 b6 bd 48 1a 95 bd b2 34 a7 bd b5 0b 01 bd
       -0.08916053 -0.072804034 -0.08164348 -0.031505305
000320 c6 12 c7 bd 18 df a2 bd d4 ce e3 bc f2 49 d2 3a
       -0.097203776 -0.07952708 -0.027808584 0.0016043766
000330 4b bc ac 3d 80 6b 85 bc a1 a8 7b bd 6d 59 cf 3c
       0.084343515 -0.016286612 -0.061440114 0.025311196
000340 c3 e2 b7 3c c8 17 54 3d de a2 ae 3d c2 a9 1a bd
       0.022446996 0.051780492 0.08527158 -0.03775955
000350 c9 e7 1b 3c b6 d1 81 3d b2 f8 4d bd 08 3e 3f bd
       0.009515711 0.06338827 -0.050286002 -0.046690017
000360 6d ec 46 3d 35 e5 8e bb 07 ae c5 bc 13 30 c8 bd
       0.048565317 -0.0043608197 -0.024130834 -0.097747944
000370 88 eb be 3d 3f a4 ad 3c 1d 72 3b bd 21 85 f2 bc
       0.09322268 0.021196483 -0.045763124 -0.029604496
000380 62 c7 a6 bd 1a 24 66 3d 77 a7 bf bc 5a 05 97 bc
       -0.08143498 0.056186773 -0.023395283 -0.018435169
000390 3f a4 81 bd 27 b6 6c bd d2 79 bb bd 9f f7 bb bd
       -0.063301556 -0.0577909 -0.09154095 -0.09178089
0003a0 b5 16 62 bc a6 78 fe bc c7 09 83 3c f4 f9 28 bd
       -0.013799359 -0.031063389 0.015995873 -0.041254
0003b0 14 d1 a5 bd 37 8f 5b 3d 47 d0 86 bd 69 ad 52 bd
       -0.08096519 0.053603377 -0.065826945 -0.051434908
0003c0 39 be 9d 3c 6e 66 fa bc ad 2e ef bd 77 1c b8 3d
       0.019255744 -0.03056642 -0.116788246 0.08989804
0003d0 dd 0f 17 bd 49 0f 48 bd 5e 57 3b 3d 8b 0d f0 3b
       -0.036880363 -0.048842702 0.045737617 0.007325833
0003e0 d6 a8 b2 bc 10 b2 89 bd da 3f d5 bd 12 0f aa bd
       -0.021809023 -0.06723416 -0.10412569 -0.08303656
0003f0 1d 97 cc 3c bf 3b 6f bd bf 59 9e bc 94 c3 45 bd
       0.0249744 -0.058406588 -0.019329904 -0.04828222

learned_7 f4 [10]
000000 4c d4 d0 bc 0e c7 1b bd 10 65 98 3a 1b 2b 80 bd
       -0.025491856 -0.03803163 0.0011626799 -0.06258222
000010 4e 9d 04 bd 43 b4 4c bd 5f 5b 26 3d 0a cc 07 3c
       -0.03237658 -0.0499766 0.040614482 0.008288393
000020 61 13 ac 3c 88 3d b2 3b
       0.021005334 0.005439464
